ml/resupply_model/policy.pth (torch, 45633 bytes, 11 tensors)

mlp_extractor.policy_net.0.weight f4 [64, 12]
0	0x3e707a8a	0.23484245
1	0x3d2f6081	0.042816643
2	0xbcac6ae6	-0.021047067
3	0x3e8a2f6f	0.26989314
4	0xbebe9d16	-0.37229222
5	0x3d242a3d	0.040079344
6	0x3e0b2f0f	0.1359217
7	0x3e591220	0.2119832
8	0x3e27ea06	0.16397867
9	0x3f150c4b	0.5822188
10	0xbe5cdd0b	-0.21568696
11	0xbd45d395	-0.048297483
12	0xbe861939	-0.26191118
13	0xbe00c555	-0.12575276
14	0xbe80951d	-0.25113764
15	0x3e0c7b61	0.1371894
16	0x3d0f3c8d	0.034969855
17	0x3e3279a9	0.17429222
18	0x3dc40f06	0.09573178
19	0xbede46e9	-0.43413475
20	0xbe8051e1	-0.2506247
21	0x3ea82c57	0.3284633
22	0x3ddbbd65	0.107294835
23	0x3eaac46b	0.3335298
24	0xbe1d055e	-0.15334079
25	0xbe8d8f65	-0.27648464
26	0xbd83a42c	-0.06427798
27	0x3e6c812c	0.2309615
28	0x3ed51d81	0.41624072
29	0xbe28b402	-0.16474918
30	0x3e48ec88	0.1962148
31	0xbefcb308	-0.4935534
32	0xbce2f290	-0.027703553
33	0x3f032e23	0.51242274
34	0x3e33ba32	0.17551497
35	0x3e862de0	0.26206875
36	0x3e40262a	0.18764558
37	0xbd23936a	-0.039935507
38	0xbe3ee8cd	-0.18643494
39	0xbd7299ff	-0.059228893
40	0xbb8a75cc	-0.0042254683
41	0xbe6ddeb2	-0.23229483
42	0x3e24a208	0.16077435
43	0x3efce271	0.4939151
44	0xbe405810	-0.18783593
45	0xbf435a31	-0.76309496
46	0xbe337cce	-0.17528078
47	0x3d196596	0.037450396
48	0x3d8001ef	0.06250369
49	0x3f0abd1b	0.541948
50	0x3e4a3b5f	0.19749211
51	0x3f1e4da1	0.618372
52	0xbef634ea	-0.48087245
53	0xbd66ce95	-0.056349356
54	0x3ca870a9	0.020561533
55	0xbc2f4604	-0.010697845
56	0xbc81da63	-0.015851205
57	0x3f09a7c3	0.5377161
58	0xbe958810	-0.2920537
59	0xbe87aef5	-0.2650067
60	0xbdca4e59	-0.09878225
61	0xbf008389	-0.50200707
62	0xbe325637	-0.17415701
63	0xbed7ebcc	-0.42172086
64	0xbf1c946e	-0.61163986
65	0x3f156f2e	0.5837277
66	0xbdaa2a21	-0.08308817
67	0xbed4f006	-0.41589373
68	0xbda45ade	-0.08025144
69	0xbf483d55	-0.78218585
70	0xbe46a17f	-0.19397543
71	0x3ee4f004	0.44714367
72	0x3e9dc95f	0.30817696
73	0x3ef0f85f	0.47064492
74	0xbe251f41	-0.16125204
75	0xbe874678	-0.2642095
76	0xbdd6966e	-0.10477911
77	0x3e831264	0.25599968
78	0xbe5c7cb4	-0.21531945
79	0x3f03b62e	0.5144986
80	0xbe46ce9a	-0.1941475
81	0xbf35f268	-0.7107301
82	0xbee1fee3	-0.44139776
83	0xbd586492	-0.052830286
84	0x3cf9dbc4	0.0305003
85	0x3d90a78f	0.07063209
86	0xbdfb7f64	-0.12280157
87	0xbea596fc	-0.32341754
88	0x3c87eded	0.016592944
89	0x3e9bb4c2	0.30411345
90	0x3e843822	0.25824076
91	0x3e6b754c	0.22993964
92	0xbf008d88	-0.5021596
93	0xbf122f23	-0.57103175
94	0xbe84b6f6	-0.25920838
95	0x3f367b3d	0.71281797
96	0xbf11c7b4	-0.5694535
97	0xbf86d48e	-1.0533617
98	0xbf914587	-1.1349343
99	0xbed55061	-0.41662887
100	0xbf4330b6	-0.762462
101	0xbf9115a3	-1.1334728
102	0xbf0f94c7	-0.5608639
103	0xbf974680	-1.181839
104	0xbf3369be	-0.70083225
105	0xbf462183	-0.77394885
106	0xbf5b69c9	-0.8570829
107	0xbf6bc6ff	-0.9210052
108	0xbf0e5443	-0.55597323
109	0xbeb1c20c	-0.3471836
110	0x3e65526e	0.22394726
111	0xbdd3e42a	-0.10346253
112	0x3f3044b5	0.6885484
113	0x3d891b99	0.06694717
114	0xbe28c081	-0.16479684
115	0xbeebd2ff	-0.46059415
116	0xbb58c64d	-0.003307718
117	0xbe76c3c8	-0.24098122
118	0x3f2debcb	0.67937917
119	0x3e67b71e	0.22628447
120	0x3e8319d4	0.25605643
121	0xbf2ce3b5	-0.67534953
122	0xbe68e9b5	-0.22745402
123	0x3df0d8f3	0.1176013
124	0x3f140507	0.5782017
125	0x3e1796f4	0.14803678
126	0xbd4d673e	-0.050147288
127	0xbee048f2	-0.43805653
128	0xbe9dacc0	-0.3079586
129	0xbe412d78	-0.18865001
130	0x3f10c5fe	0.5655211
131	0x3e877b45	0.26461235
132	0xbd1998bf	-0.037499186
133	0x3eaefb60	0.3417616
134	0x3e40b0c6	0.18817434
135	0x3a07d236	0.0005181165
136	0xbe8bf757	-0.27337143
137	0x3e9f799b	0.31147465
138	0xbdc6c718	-0.09705943
139	0x3eb27953	0.34858188
140	0xbe3aba10	-0.1823504
141	0x3f278309	0.6543432
142	0xbf0b9749	-0.5452772
143	0xbce1e090	-0.0275729
144	0xbe744101	-0.23852922
145	0xbed45603	-0.41471872
146	0x3ec3b1e4	0.38221657
147	0x3e60e335	0.21961673
148	0x3ea2ba20	0.31782627
149	0xbe880562	-0.26566607
150	0x3d5ab2c9	0.05339316
151	0xbe72028c	-0.23633784
152	0x3ee4d35a	0.44692498
153	0xbe88ebe0	-0.26742458
154	0x3dae071f	0.08497452
155	0xbe87ae02	-0.26499945
156	0xbc0eb8f3	-0.0087110875
157	0xbf1bd7d0	-0.6087618
158	0x3eea3357	0.45742294
159	0xbe03cde6	-0.12871513
160	0x3cc0e2cb	0.023545643
161	0xbeb7d7ad	-0.35906735
162	0xbd8f2111	-0.06988729
163	0xbee2ec19	-0.44320753
164	0x3e4baff3	0.19891338
165	0xbdbd120a	-0.09231956
166	0x3eaf19b2	0.3419929
167	0x3e47571c	0.19466823
168	0xbccd71c3	-0.02507866
169	0x3eabf82e	0.33587784
170	0x3d8e498f	0.06947624
171	0xbe8c97fd	-0.27459708
172	0xbe396570	-0.18105102
173	0xbd0d4481	-0.03448916
174	0xbd38ed7f	-0.04514837
175	0x3d70abab	0.058757465
176	0xbd60f8dc	-0.05492483
177	0xbf3ed100	-0.7453766
178	0xbe05a101	-0.130497
179	0xbe26bc71	-0.16282822
180	0x3b0783d1	0.0020677934
181	0x3eae4a8d	0.34041253
182	0x3ed762ef	0.42067668
183	0xbc214a20	-0.009844333
184	0xbe9c7a4b	-0.30562052
185	0xbe9fa45d	-0.31180087
186	0xbbdef699	-0.006804299
187	0x3eea46d4	0.45757163
188	0x3e90d077	0.28284046
189	0xbd8bcff4	-0.06826773
190	0xbe7f3254	-0.24921542
191	0xbe70df07	-0.23522578
192	0xbde556b3	-0.11198177
193	0x3eb97dfe	0.36228937
194	0xbd747505	-0.05968191
195	0xbf18cc6a	-0.5968691
196	0xbd53ead9	-0.05173764
197	0xbea5cfc0	-0.32385063
198	0x3ed0f356	0.4081065
199	0x3f06a3e3	0.5259382
200	0x3e607434	0.21919328
201	0xbed5bfa7	-0.41747782
202	0xbeab1107	-0.33411428
203	0x3d9048e6	0.07045154
204	0x3f04495e	0.5167445
205	0x3e109032	0.14117506
206	0x3f817d8b	1.0116438
207	0x3e842cf5	0.2581555
208	0x3ed65994	0.41865218
209	0x3d514b68	0.051097304
210	0x3e0560fe	0.13025281
211	0x3e518388	0.20460331
212	0x3f5ea99b	0.8697755
213	0x3ebbfc61	0.36715987
214	0x3f0b1364	0.5432646
215	0x3da675c5	0.081279315
216	0x3da064b3	0.07831707
217	0xbec6dc3d	-0.38839903
218	0xbd237298	-0.039904207
219	0x3eb4164f	0.3517327
220	0x3ec1f78c	0.37884176
221	0x3eb69ea3	0.35667905
222	0xbdf00afe	-0.117208466
223	0xbec6ca75	-0.38826337
224	0xbe41f963	-0.1894279
225	0x3e86311e	0.26209348
226	0x3e9c09a3	0.30476102
227	0x3cf8ca83	0.030370003
228	0x3ea8700c	0.32897985
229	0xbe9eb3f0	-0.30996656
230	0x3eb9cc77	0.36288807
231	0xbc9e66be	-0.0193361
232	0x3eba557e	0.3639335
233	0xbed459ba	-0.41474706
234	0xbe8e5c09	-0.27804592
235	0xbca69069	-0.020332532
236	0x3f0f20c8	0.55909395
237	0x3eb22a20	0.34797764
238	0xbe5b162a	-0.21395174
239	0xbf08a5ac	-0.53377795
240	0xbe20d966	-0.15707931
241	0xbe757906	-0.23971948
242	0x3e97dbd2	0.29659897
243	0xbe19e957	-0.15030418
244	0x3e637879	0.22213925
245	0xbf07572e	-0.528674
246	0xbcaf0598	-0.021364972
247	0xbecbfb34	-0.3984009
248	0x3f3143b2	0.6924392
249	0x3eadd4cc	0.33951414
250	0x3eba4cd7	0.3638675
251	0xbeedf956	-0.4647929
252	0x3d6fce87	0.05854657
253	0x3d4ac004	0.049499527
254	0xbf1a8e66	-0.6037353
255	0x3ea2b979	0.3178213

mlp_extractor.policy_net.0.bias f4 [64]
0	0xbef70d0e	-0.48252147
1	0x3d312025	0.043243546
2	0xbe80054d	-0.25004044
3	0x3eb2f2dc	0.34950912
4	0xbe5ee2a7	-0.21766149
5	0x3e8daeac	0.27672327
6	0x3e49eafc	0.19718546
7	0x3eead4d5	0.45865503
8	0xbf61c726	-0.881945
9	0xbd8dcd1e	-0.069238886
10	0xbbfe8b9a	-0.0077681066
11	0xbe5ec8ae	-0.2175624
12	0x3da68f79	0.08132834
13	0x3e1534b1	0.14570881
14	0x3ec5a07d	0.38599005
15	0xbdf329bc	-0.118731946
16	0x3e3c1f22	0.18371251
17	0x3ef5b5a3	0.4799014
18	0xbe99f091	-0.3006635
19	0xbdfc1e1c	-0.123104304
20	0xbc9d0be2	-0.019170705
21	0xbdc5d69f	-0.09660076
22	0x3e3aa68a	0.18227592
23	0x3e283d9a	0.16429749
24	0x3d7a99e9	0.061181936
25	0xbe533fe7	-0.20629846
26	0xbe39272e	-0.18081352
27	0xbdd278ae	-0.10276924
28	0xbeeefdab	-0.46677908
29	0x3d1000cf	0.03515702
30	0xbde73cb5	-0.11290876
31	0xbe1c5415	-0.1526645
32	0x3eca43f9	0.39504984
33	0x3eb9e6ff	0.3630905
34	0xbeb130a2	-0.34607416
35	0xbf1a076c	-0.60167575
36	0x3eabe283	0.33571252
37	0xbd9d00df	-0.07666182
38	0xbd5e14fb	-0.054219227
39	0x3e72a669	0.23696293
40	0x3ee98d42	0.45615584
41	0x3eaf30d8	0.34216952
42	0xbce0206a	-0.027359206
43	0xbde1ec8d	-0.110314466
44	0xbeb18788	-0.34673715
45	0x3f70ab7a	0.9401165
46	0x3e0ed73a	0.1394929
47	0x3eff502e	0.4986586
48	0xbf24c59d	-0.64364034
49	0xbeb9c939	-0.36286333
50	0x3ea04678	0.31303763
51	0xbe327e8f	-0.17431091
52	0x3eeb6ed9	0.45983008
53	0x3e804a4f	0.25056693
54	0xbdf427f0	-0.1192168
55	0x3f69eece	0.9138001
56	0xbe0783b8	-0.1323384
57	0xbe0d74ae	-0.13814041
58	0xbea54037	-0.32275555
59	0x3dd5fce7	0.10448628
60	0xbd4f2b7a	-0.05057857
61	0x3ebfe57a	0.37479764
62	0xbe369cf5	-0.17833312
63	0x3e58ecfa	0.2118415

mlp_extractor.policy_net.2.weight f4 [64, 64]
0	0xbeb93c6e	-0.36178917
1	0x3d25b565	0.040456194
2	0x3e7c0881	0.24612619
3	0x3ebfe352	0.3747812
4	0xbf6d147f	-0.926094
5	0x3f31e89e	0.6949557
6	0xbf088e64	-0.5334227
7	0x3df67f9c	0.12036058
8	0x3dc5ee15	0.09664551
9	0x3f2afc42	0.66791165
10	0x3f9e4f7d	1.2368008
11	0xbfdd9b6b	-1.7313055
12	0x3f29b947	0.66298336
13	0x3f381d83	0.7192003
14	0x3dcd6458	0.10028905
15	0xbef8c558	-0.4858806
16	0xbdfa19d5	-0.12211958
17	0x3e517d51	0.2045796
18	0x3d680a3d	0.05665039
19	0x3e084c2c	0.13310307
20	0x3f5c2ea5	0.86008674
21	0xbf0eeba2	-0.558283
22	0x3f425890	0.75916386
23	0x3f1cc13d	0.6123236
24	0x3f862308	1.0479441
25	0xbf02105b	-0.50806206
26	0xbe807484	-0.25088894
27	0x3ed256da	0.41081887
28	0xbe13ad7b	-0.14421646
29	0x3dae873b	0.08521887
30	0x3f4a0f7d	0.78929883
31	0xbee4e36f	-0.44704768
32	0x3f26efec	0.6520984
33	0x3e3748b1	0.17898823
34	0xbec2c608	-0.3804171
35	0xbe22ab0a	-0.15885559
36	0x3f1ad57f	0.6048202
37	0x3ec873d9	0.39150885
38	0xbdf487d0	-0.11939967
39	0x3f883bd6	1.064326
40	0xbe27414f	-0.16333507
41	0x3f0734ed	0.52815133
42	0xbe55e37e	-0.20887563
43	0x3f01b195	0.50661594
44	0xbcaf28fd	-0.02138185
45	0xbd88c742	-0.066786304
46	0xbebe6719	-0.37188032
47	0x3f74a51a	0.95564425
48	0xbd63c3f2	-0.05560679
49	0xbe90290d	-0.2815632
50	0xbeafd14f	-0.34339377
51	0xbe303d0c	-0.17210788
52	0x3ce90b9c	0.028447919
53	0xbf5d3ca2	-0.86420643
54	0x3f918163	1.1367611
55	0x3dc58de1	0.09646202
56	0xbf306935	-0.68910533
57	0x3e14c729	0.14529099
58	0xbd533f08	-0.051573783
59	0x3d93b2da	0.072118476
60	0x3d872ccf	0.066003434
61	0xbd8b34ec	-0.067972034
62	0xbf9fe81f	-1.2492713
63	0x3d6984ef	0.05701154
64	0xbf58aef2	-0.84641945
65	0x3f1bcf3d	0.60863096
66	0xbe6155bd	-0.22005363
67	0x3f17b328	0.59257746
68	0xbea7f93e	-0.32807344
69	0xbe29e327	-0.16590558
70	0x3f8ea22b	1.114324
71	0x3f4fed01	0.81221014
72	0xbee616e9	-0.44939354
73	0xbeb5ce03	-0.35508737
74	0x3e000f1f	0.12505768
75	0xbdb952c1	-0.09048987
76	0xbea789bf	-0.3272228
77	0xbed75306	-0.4205553
78	0x3f70c807	0.9405522
79	0xbd2f103f	-0.042740103
80	0xbe62e693	-0.2215827
81	0x3e7b6734	0.24551088
82	0xbe7f01b7	-0.24902998
83	0xbf1c488c	-0.610482
84	0xbf347ceb	-0.7050311
85	0x3f592a97	0.8483061
86	0x3da85e67	0.08221131
87	0x3e22d322	0.15900853
88	0x3d9ada8f	0.07561218
89	0x3e9fd68c	0.31218374
90	0x3e395b65	0.1810127
91	0xbb82ddc7	-0.003993723
92	0xbe1ec479	-0.15504636
93	0xbeace1a8	-0.33765912
94	0xbe512ae5	-0.20426519
95	0x3df44445	0.11927084
96	0x3df21a85	0.118214644
97	0xbd94ee60	-0.07272029
98	0xbe4dbc6d	-0.2009141
99	0xbf9bfb9a	-1.2186158
100	0x3e5f0fd0	0.21783376
101	0xbead1d8a	-0.338116
102	0x3caa0674	0.02075503
103	0xbf1339ab	-0.5750987
104	0x3f742e3f	0.95383066
105	0x3e069af7	0.13145052
106	0xbf2cd6d7	-0.6751532
107	0xbea1eac4	-0.31624424
108	0xbe80d879	-0.25165156
109	0x3eb970d5	0.36218897
110	0x3f20b0c6	0.62769735
111	0x3f662f26	0.8991569
112	0xbf3f3f73	-0.7470619
113	0xbf066eb5	-0.52512676
114	0x3f9ebd71	1.2401563
115	0xbf12ef85	-0.5739673
116	0x3f3a84fe	0.7285918
117	0x3f40f527	0.7537407
118	0xbf3dc9f9	-0.7413631
119	0x3ee8bef8	0.45458198
120	0x3d8208d2	0.063493386
121	0x3e27d45b	0.16389601
122	0xbed9a13b	-0.42505822
123	0xbde2a4aa	-0.110665634
124	0x3ef597c9	0.47967365
125	0x3ef971f6	0.48719758
126	0x3d939ad6	0.07207267
127	0x3ed331c8	0.41248918
128	0x3f07f51f	0.531084
129	0xbee4fbee	-0.44723457
130	0xbe1c047a	-0.15236083
131	0xbe588b3f	-0.21146868
132	0x3fa6e775	1.3039385
133	0xbf160bb4	-0.5861161
134	0xbc094b30	-0.0083797425
135	0xbdcb5f75	-0.09930316
136	0xbe56a33d	-0.20960708
137	0xbfc19409	-1.5123302
138	0xbff7cc56	-1.9359233
139	0x3f80267f	1.0011748
140	0xbe151f0f	-0.14562629
141	0xbee99297	-0.45619652
142	0x3d03b8e4	0.032158747
143	0x3fafbff8	1.3730459
144	0x3decb8df	0.11558699
145	0x3e98defe	0.2985763
146	0xbf288abc	-0.6583669
147	0x3e19c20b	0.15015428
148	0x3dc33267	0.09531098
149	0x3e05a5e3	0.13051562
150	0xbe22a741	-0.15884115
151	0xbfb614e2	-1.4225123
152	0xbfa7dbe0	-1.3113976
153	0x3fa46fc5	1.2846609
154	0x3d90eea2	0.070767656
155	0xbc168b8a	-0.009188542
156	0x3f3fd233	0.74930114
157	0xbf1a0554	-0.6016438
158	0xbf6e604e	-0.931157
159	0x3fbabf1a	1.458957
160	0xbecd17ce	-0.40057224
161	0xbe936fd8	-0.28796268
162	0x3f77eed8	0.9684882
163	0xbe1ac101	-0.15112688
164	0xbf38ca11	-0.7218333
165	0xbf136353	-0.5757343
166	0x3fddb477	1.7320698
167	0xbd018bc8	-0.031627446
168	0x3e2a3221	0.16620685
169	0x3e2534ab	0.16133372
170	0x3dc02973	0.09382906
171	0xbf77b1ea	-0.9675585
172	0xbcf32aa2	-0.029683415
173	0x3e1d6464	0.15370327
174	0xbc82ac52	-0.01595131
175	0xbf4395b8	-0.7640033
176	0x3eb23ae6	0.3481056
177	0xbd9bd08f	-0.07608139
178	0x3e396129	0.1810347
179	0x3e5ba54e	0.21449777
180	0xbe8e565f	-0.2780027
181	0x3eaf101b	0.34191975
182	0xbf6b02e6	-0.918013
183	0x3f07818d	0.52932054
184	0x3f86d019	1.0532256
185	0xbf5a3f20	-0.8525257
186	0x3e8ae13e	0.2712497
187	0xbf49ba79	-0.7880016
188	0xbf33bdc9	-0.70211464
189	0x3e85fadb	0.2616795
190	0x3f9b5ee7	1.2138337
191	0x3e5c3217	0.21503483
192	0x3e068392	0.13136128
193	0x3eae10bd	0.33997145
194	0xbe6f0839	-0.2334298
195	0xbe3b37dd	-0.18283029
196	0x3eaf0cb6	0.34189385
197	0xbde41c8d	-0.11138258
198	0xbd9c6029	-0.076355286
199	0xbd3b1dc3	-0.04568268
200	0xbee03888	-0.4379313
201	0xbdc17813	-0.094467305
202	0xbed2697a	-0.41096097
203	0x3f821fd0	1.0165958
204	0xbdfed8c8	-0.124436915
205	0xbeacd8dd	-0.33759204
206	0xbe3174a9	-0.17329659
207	0x3f031aad	0.5121258
208	0xbeabd0a0	-0.33557606
209	0x3f1522da	0.58256304
210	0x3ecb9a68	0.3976624
211	0x3e4e3b54	0.2013982
212	0xbf21d932	-0.6322204
213	0x3e11ed0a	0.1425058
214	0x3e0c0252	0.1367276
215	0xbd50b04b	-0.050949376
216	0x3e09309b	0.13397448
217	0xbcbe4f62	-0.023231212
218	0x3e58a2a9	0.211558
219	0x3f1d06c3	0.6133844
220	0x3e2ba964	0.16763836
221	0x3c40955b	0.011754359
222	0xbf6d32dc	-0.9265573
223	0x3e15f585	0.1464444
224	0xbeb7514b	-0.3580421
225	0xbf253431	-0.6453276
226	0x3eccce64	0.40001214
227	0x3dc58086	0.096436545
228	0xbdd3ea8c	-0.10347471
229	0xbe52c57b	-0.20583145
230	0x3de3a6c2	0.11115791
231	0xbf08381e	-0.5321063
232	0x3c459ff3	0.012062061
233	0xbb113859	-0.002215883
234	0x3dafbc16	0.085807964
235	0xbec45c2e	-0.38351578
236	0x3d657827	0.05602279
237	0x3eaa4933	0.33258972
238	0x3e906485	0.2820169
239	0xbd82198e	-0.063525304
240	0x3f28cf91	0.6594172
241	0x3becc419	0.007225525
242	0x3f276731	0.6539183
243	0x3e921aa1	0.2853594
244	0x3e1598bf	0.1460905
245	0x3ef619e6	0.48066634
246	0xbea9bea0	-0.33153248
247	0x3d8d00ef	0.06884944
248	0x3ec6c554	0.38822424
249	0x3f347f04	0.7050631
250	0x3f27d300	0.65556335
251	0xbe1bf621	-0.1523061
252	0xbede54a4	-0.4342395
253	0xbe88b5c2	-0.2670117
254	0xbcb51aeb	-0.022107562
255	0x3f210d8f	0.62911314

mlp_extractor.policy_net.2.bias f4 [64]
0	0x3e2fdfd3	0.17175226
1	0x3f05a62d	0.5220669
2	0x3e4603cf	0.1933739
3	0x3e2486fd	0.16067119
4	0xbe0d2fad	-0.13787718
5	0x3ee957c5	0.45574775
6	0xbc83aeaa	-0.016074497
7	0x3d33b59b	0.043874364
8	0x3e2a7b8c	0.16648692
9	0xbe4f835a	-0.2026495
10	0xbcd94d75	-0.026526192
11	0x3eaefee9	0.34178856
12	0x3eb6c221	0.35694984
13	0xbe464f11	-0.19366099
14	0x3dcdd641	0.10050631
15	0xbe62b1f0	-0.2213819
16	0x3ba433c3	0.0050110533
17	0x3eb56454	0.35428107
18	0x3e735d07	0.23765956
19	0xbd2c44cb	-0.042057794
20	0x3edd7be9	0.43258598
21	0x3e937e8b	0.28807482
22	0xb95e8717	-0.00021221895
23	0x3e99b61b	0.30021748
24	0x3e09ecd5	0.1346925
25	0x3e91efd7	0.28503296
26	0x3d8a9eac	0.067685455
27	0x3ea8939e	0.32925123
28	0xbe7ddb29	-0.24790634
29	0xbe4a612a	-0.19763628
30	0x3d81354f	0.06308996
31	0xbe5492bc	-0.207591
32	0xbe5b8250	-0.21436429
33	0x3e22fa26	0.15915737
34	0xbdb9c037	-0.09069865
35	0xbedff200	-0.4373932
36	0x3e8bf06c	0.27331865
37	0x3dab463d	0.08363006
38	0xbecc662b	-0.39921698
39	0x3c6dc0bc	0.0145112835
40	0xbec2e3db	-0.38064465
41	0xbe69e484	-0.22841078
42	0xbe081171	-0.13287903
43	0xbde0742e	-0.109596595
44	0xbda1167e	-0.07865618
45	0x3c576532	0.013146685
46	0xbe540ff2	-0.20709208
47	0xbc7503eb	-0.014954547
48	0x3e19654e	0.14980051
49	0xbe971ea8	-0.29515576
50	0xbe9df884	-0.30853665
51	0xbe8670a2	-0.26257807
52	0x3df4e772	0.11958207
53	0xbebd88b8	-0.3701837
54	0xbe6aa36f	-0.22913907
55	0xbcc2295b	-0.02370136
56	0x3ea1fb5b	0.31637082
57	0xbea40fa3	-0.3204318
58	0xbc8451eb	-0.016152343
59	0x3eb18512	0.34671837
60	0x3ebe28f7	0.3714063
61	0xba188d6e	-0.00058194145
62	0xbd9458d2	-0.07243504
63	0x3de0e7eb	0.10981735

mlp_extractor.value_net.0.weight f4 [64, 12]
0	0x3bebd168	0.007196594
1	0xbe3a0e7c	-0.18169588
2	0xbf3b36bc	-0.73130393
3	0xbe9e7fb8	-0.30956817
4	0xbe5aa5c7	-0.21352302
5	0x3e3092c9	0.17243494
6	0x3d63666e	0.055517606
7	0xbe5d9f0b	-0.21642701
8	0xbf1ef504	-0.62092614
9	0xbedc0fd7	-0.42980835
10	0x3f598866	0.8497375
11	0x3ee2ffe0	0.44335842
12	0x3dd24454	0.10266939
13	0xbea97ffd	-0.3310546
14	0xbda125cd	-0.07868538
15	0x3e52b209	0.20575728
16	0x3e4fe52f	0.2030227
17	0xbcebbd9e	-0.02877694
18	0xbd0a7522	-0.033803113
19	0xbe982e6c	-0.29722917
20	0xbe94209f	-0.28931138
21	0x3e5ac7ed	0.21365328
22	0x3f23a635	0.63925487
23	0x3e90df85	0.28295532
24	0xbd15d98d	-0.036584426
25	0xbd9f61dd	-0.07782338
26	0xbd1689f5	-0.03675266
27	0x3e4e0ce1	0.201221
28	0x3e7ae723	0.24502234
29	0xbd8422ab	-0.06451925
30	0x3b4ad283	0.0030948229
31	0xbf0402fd	-0.5156706
32	0xbf2f7077	-0.6853098
33	0xbaa3c329	-0.0012494075
34	0x3f146163	0.579611
35	0x3f4fd941	0.8119088
36	0xbbbccbfc	-0.0057616215
37	0x3dfb60ad	0.12274299
38	0xbc09a9f9	-0.008402341
39	0xbd6ff9a8	-0.0585877
40	0xbed341d7	-0.4126117
41	0x3e6257e5	0.22103842
42	0xbe512443	-0.20423989
43	0x3df08b7e	0.11745356
44	0x3c777ded	0.015105707
45	0xbe16f623	-0.14742331
46	0xbf869f3d	-1.0517346
47	0xbd9a1a7e	-0.07524584
48	0x3e6809d9	0.22660007
49	0x3e05fba5	0.13084276
50	0x3ea35b7b	0.31905732
51	0x3c749332	0.014927672
52	0x3efc6b65	0.49300686
53	0xbdc65fc0	-0.096862316
54	0xbc6fb8e9	-0.014631488
55	0x3ea0a6fd	0.31377402
56	0xbe904677	-0.2817876
57	0xbf19a91c	-0.60023665
58	0x3e77fe3f	0.24218081
59	0x3e952be5	0.2913505
60	0xbd1a21cb	-0.037629884
61	0xbea02691	-0.31279424
62	0xbe9c0a3c	-0.30476558
63	0xbe12af43	-0.1432467
64	0xbea2b3ab	-0.317777
65	0xbe97b06d	-0.2962679
66	0xbe1647ed	-0.14675875
67	0xbed41340	-0.41420937
68	0xbed1204f	-0.40844962
69	0x3e002b6c	0.12516564
70	0xbf07ad19	-0.529985
71	0xbebc8deb	-0.36827025
72	0x3db17835	0.08665506
73	0xbed139cb	-0.40864405
74	0x3e15c616	0.14626345
75	0x3e2e8876	0.17044243
76	0xbdc7e235	-0.097599424
77	0xbee7e13f	-0.45289037
78	0xbdf9d848	-0.121994555
79	0xbf7413a1	-0.9534245
80	0x3ef00df0	0.46885633
81	0x3d1a3814	0.037651137
82	0x3f16d3c6	0.5891689
83	0xbddf911b	-0.109163485
84	0xbd7eed1c	-0.062237844
85	0x3e220650	0.1582272
86	0x3e37c012	0.17944363
87	0xbe3cfddb	-0.18456213
88	0xbd68b87e	-0.05681657
89	0x3db38550	0.08765662
90	0x3d920cd7	0.07131355
91	0x3e70a584	0.23500639
92	0xbeb9beaf	-0.36278293
93	0x3de108dd	0.10988019
94	0xbf278586	-0.65438116
95	0xbd31fa12	-0.043451376
96	0xbe3713ab	-0.17878596
97	0xbdf38b39	-0.11891789
98	0xbe2c44e7	-0.16823159
99	0xbd5a54d5	-0.05330356
100	0x3da9584e	0.08268796
101	0xbb4e32dc	-0.003146342
102	0x3c1b2883	0.009470108
103	0xbf15f060	-0.5856991
104	0xbdb181d5	-0.086673416
105	0xbf177058	-0.591558
106	0x3f13cf8f	0.57738584
107	0x3e8d8bad	0.27645627
108	0x3e020719	0.1269802
109	0xbf0e3892	-0.5555507
110	0x3d1a413a	0.03765986
111	0x3e7259b5	0.23667033
112	0x3c82ec9a	0.015981961
113	0x3c2967a0	0.0103396475
114	0x3cea4058	0.028595135
115	0xbd9bfe59	-0.07616872
116	0x3e613dd6	0.21996245
117	0xbded6339	-0.11591191
118	0xbe4aa49b	-0.19789355
119	0xbe1659a7	-0.14682637
120	0xbddee463	-0.10883405
121	0xbe9215fb	-0.28532395
122	0xbe045cf1	-0.1292608
123	0xbe43130f	-0.19050239
124	0x3e4920a8	0.19641364
125	0x3b3adde9	0.0028513616
126	0x3d8f547d	0.06998537
127	0x3db75a0e	0.089527234
128	0x3e02ac20	0.12760973
129	0xbeb7f703	-0.35930642
130	0xbeb10190	-0.34571505
131	0x3e28178e	0.16415235
132	0xbe2090a1	-0.15680172
133	0x3e90e0c7	0.28296492
134	0x3e6fc3ae	0.2341449
135	0xbd920365	-0.07129554
136	0x3d59c2b3	0.053164195
137	0xbede1c26	-0.4338085
138	0x3d34e6d0	0.044165432
139	0x3e96fb89	0.2948878
140	0x3ef97ca0	0.48727894
141	0x3d85400a	0.06506355
142	0x3eccc71b	0.39995655
143	0xbf6fbd0e	-0.9364785
144	0xbdcca23e	-0.09991883
145	0xbef69b81	-0.48165515
146	0xbd6686d8	-0.05628094
147	0xbdecaf74	-0.115569025
148	0x3e72a729	0.23696579
149	0xbdef059f	-0.11670994
150	0xbbae3c42	-0.005317242
151	0x3d2ef46c	0.042713568
152	0xbf0bce6d	-0.54611856
153	0xbd48d1b5	-0.049028117
154	0x3d4419e2	0.047876246
155	0x3f2f1ff6	0.68408144
156	0xbdf2f641	-0.118633755
157	0xbec6b8a9	-0.3881276
158	0xbd895425	-0.067055024
159	0x3dd9901c	0.1062319
160	0xbe72aa2e	-0.23697731
161	0x3d18414f	0.037171658
162	0x3c596de5	0.01327083
163	0xbe604491	-0.21901156
164	0x3ca3af1d	0.019980961
165	0xbe306808	-0.17227185
166	0xbcee468f	-0.02908638
167	0xbedb2de2	-0.42808443
168	0xbd04390d	-0.03228097
169	0x3db3d255	0.08780352
170	0xbc9cc816	-0.019138377
171	0xbe81532b	-0.25258765
172	0x3eda844d	0.42679062
173	0xbde6dbe9	-0.11272413
174	0xbdd4fc52	-0.10399689
175	0x3d813d43	0.06310513
176	0x3e54a3e6	0.20765647
177	0xbd442330	-0.04788512
178	0x3e975bc4	0.295622
179	0x3f19a71a	0.600206
180	0x3e294ce7	0.16533242
181	0xbe779af2	-0.241802
182	0x3ea88414	0.32913268
183	0xbe051b45	-0.12998684
184	0xbf39471c	-0.7237413
185	0x3ee23faa	0.44189197
186	0x3e042eb1	0.12908436
187	0xbe42f4c9	-0.1903869
188	0x3e4c73cf	0.19966052
189	0xbdfda90a	-0.12385757
190	0x3eb1d8dd	0.34735766
191	0xbe2eb0b1	-0.1705959
192	0x3da26239	0.07928891
193	0xbe470088	-0.19433796
194	0xbe1bed04	-0.15227133
195	0x3de6e0f4	0.11273375
196	0x3d5b793e	0.053582422
197	0x3e856089	0.26050213
198	0x3d8b243f	0.06794023
199	0x3c4169e0	0.011805028
200	0x3e7b3fcf	0.2453606
201	0x3ee19576	0.44059342
202	0xbc854280	-0.016267061
203	0x3d2b3958	0.041802734
204	0x3d98e12a	0.07464822
205	0x3d6f9bc0	0.058498144
206	0xbf09193b	-0.53554124
207	0xbe6f9008	-0.23394787
208	0x3e93be66	0.288562
209	0x3b993adc	0.004676206
210	0xbd98bca7	-0.074578576
211	0xbe0d4228	-0.13794768
212	0xbf382206	-0.71926916
213	0xbe4c0916	-0.19925341
214	0x3dca461d	0.09876654
215	0x3f72a0f0	0.9477682
216	0x3c938785	0.018008957
217	0xbe97a22a	-0.2961591
218	0x3f2164c0	0.6304436
219	0x3d4ad8b5	0.049523074
220	0x3e258aca	0.16166225
221	0xbdcd566c	-0.10026249
222	0x3e0b18e9	0.13583721
223	0xbe99a19e	-0.30006117
224	0x3e82147d	0.25406256
225	0x3df3b674	0.119000345
226	0x3efcb901	0.49359897
227	0xbe70f53f	-0.23531054
228	0x3e35aa1f	0.17740677
229	0xbe1f6748	-0.15566742
230	0x3f772946	0.96547353
231	0x3e966ec6	0.29381388
232	0x3e5aa3f2	0.21351603
233	0x3f1c30c2	0.610119
234	0x3e1ec261	0.15503837
235	0xbb865dc7	-0.0041005346
236	0x3f4020f6	0.75050294
237	0xbdc81c1b	-0.09770986
238	0x3eda9f61	0.4269972
239	0x3f5460d2	0.82960236
240	0x3de41cd5	0.11138312
241	0xbeddd581	-0.43326953
242	0x3dc7b560	0.097513914
243	0xba9969fc	-0.001170456
244	0x3c3bc889	0.0114613855
245	0xbd7484ff	-0.059697147
246	0x3c329eb5	0.0109020965
247	0xbed796e8	-0.4210732
248	0xbe831acf	-0.2560639
249	0x3e6443c5	0.22291477
250	0x3ec7d080	0.3902626
251	0x3dd76fa1	0.105193384
252	0xbd66d3c2	-0.05635429
253	0x3f16ad45	0.5885814
254	0xbd04d9ac	-0.03243415
255	0x3ed2a17d	0.4113883

mlp_extractor.value_net.0.bias f4 [64]
0	0x3dd72320	0.105047464
1	0x3d8897a5	0.06669549
2	0xbe83050d	-0.2558979
3	0x3eb7e5df	0.35917565
4	0x3d36548e	0.04451423
5	0xbe13f9fc	-0.1445083
6	0x3e7c5138	0.24640357
7	0x3caa03f9	0.020753847
8	0xbce5b668	-0.02804108
9	0x3ebd8e51	0.3702264
10	0x3ed9af87	0.4251673
11	0xbf04f484	-0.519356
12	0x3e9381ee	0.28810066
13	0x3f612b62	0.8795682
14	0xbb9d5d26	-0.004802364
15	0x3eb52041	0.3537617
16	0xbef7e219	-0.48414686
17	0x3e660bbe	0.22465417
18	0xbdf1b8e6	-0.11802845
19	0x3d995a06	0.07487874
20	0x3e40b137	0.18817602
21	0xbed4d509	-0.41568783
22	0x3e12a92d	0.14322348
23	0x3d987fe1	0.07446266
24	0xbc529b21	-0.012854368
25	0x3ea6fb9f	0.32613847
26	0x3e08afe7	0.13348351
27	0xbc771c05	-0.015082364
28	0xbd037eb0	-0.03210324
29	0x3ea980c2	0.33106047
30	0xbd342e5c	-0.043989524
31	0x3f2586b5	0.6465867
32	0xbe91ef6a	-0.2850297
33	0xbf268ce3	-0.65058726
34	0x3e35c857	0.17752205
35	0x3f0017c0	0.5003624
36	0x3d7f462f	0.06232279
37	0xbd51c4ab	-0.051212948
38	0x3bb9c391	0.0056690653
39	0xbcab323b	-0.020897975
40	0x3cbe127b	0.023202172
41	0x3d93b26d	0.072117664
42	0x3e243db6	0.16039166
43	0x3e73aa79	0.23795499
44	0xbeac8ace	-0.3369965
45	0x3e01f717	0.12691914
46	0xbfdb7e4e	-1.714792
47	0xbecdae8e	-0.40172237
48	0xbe981c8d	-0.29709283
49	0xbf38decb	-0.72214955
50	0x3e322bae	0.17399475
51	0xbea0e786	-0.31426638
52	0xbdca8979	-0.09889502
53	0x3e853304	0.26015484
54	0xbda02016	-0.0781862
55	0x3e097646	0.13424024
56	0xbc2f85a9	-0.010713019
57	0xbdc7a407	-0.097480826
58	0x3e8da22e	0.27662796
59	0xbe71304d	-0.23553582
60	0x3d6f588c	0.058434054
61	0x3f5f12a4	0.8713782
62	0xbd618786	-0.055060886
63	0x3e960f38	0.29308486

mlp_extractor.value_net.2.weight f4 [64, 64]
0	0xbceb614d	-0.02873292
1	0x3ddef039	0.108856626
2	0x3dda38b9	0.1065535
3	0x3e267e43	0.16259103
4	0xbdc66048	-0.09686333
5	0xbe51131d	-0.20417447
6	0xbe896849	-0.26837376
7	0x3e958620	0.29203892
8	0x3a5f3a5b	0.00085154705
9	0x3c3b81ea	0.011444548
10	0xbe412782	-0.18862727
11	0x3d7161be	0.058931105
12	0xbe92273b	-0.28545555
13	0x3b5d2667	0.0033744813
14	0x3dc76ee6	0.09737949
15	0x3e01fa73	0.12693195
16	0x3e8c4f82	0.2740441
17	0xbe920a12	-0.28523308
18	0xbe62393b	-0.22092144
19	0xbd029cc5	-0.03188779
20	0x3d7ab401	0.06120682
21	0x3b42b4bd	0.002970978
22	0xbec5481e	-0.38531584
23	0x3d8bacfe	0.06820105
24	0xbe804ddd	-0.25059405
25	0x3d4645a8	0.048406273
26	0xbe5e8855	-0.21731694
27	0xbca61493	-0.020273482
28	0xbddad67a	-0.106854394
29	0xbd9c1dea	-0.07622893
30	0xbe81018d	-0.25196496
31	0x3e8869b0	0.26643133
32	0x3e5225f6	0.20522293
33	0xbc59981e	-0.0132808965
34	0xbd80dba2	-0.06291892
35	0x3e7fd270	0.2498262
36	0x3d525a65	0.05135574
37	0xbd88da86	-0.06682305
38	0x3d19a239	0.037508223
39	0xbe79b3a6	-0.24384937
40	0x3d5c8c31	0.053844634
41	0xbd68219a	-0.05667267
42	0xbdabf360	-0.083960295
43	0x3d8f22a2	0.069890276
44	0x3e098c18	0.13432348
45	0x3e63ffaf	0.22265504
46	0xbd96a809	-0.07356269
47	0x3da4ee14	0.08053222
48	0x3df06de3	0.11739709
49	0xbec40f41	-0.38292888
50	0xbea5bade	-0.3236913
51	0x3e50f02b	0.20404117
52	0xbe059c3b	-0.13047878
53	0xbe873214	-0.26405394
54	0xbc857683	-0.016291862
55	0x3e34ee44	0.17669016
56	0x3c980be1	0.018560352
57	0xbe686f17	-0.22698627
58	0x3bb292ec	0.0054496434
59	0x3e12dce7	0.1434208
60	0xbd04051a	-0.032231428
61	0x3d0fa696	0.035070978
62	0x3e3e000c	0.18554705
63	0xbe17d123	-0.14825873
64	0x3d1e28c9	0.038613115
65	0xbe147aac	-0.1449992
66	0xbd90cb5a	-0.07070036
67	0x3d7c71a2	0.061631806
68	0xbd9b6412	-0.07587446
69	0xbe5440ed	-0.20727892
70	0x3d45626c	0.048189566
71	0xbd84bd94	-0.06481472
72	0x3ea46512	0.3210836
73	0x3d71d03d	0.059036482
74	0x3dd01e0d	0.10161982
75	0x3d599619	0.05312166
76	0xbe888fe2	-0.26672274
77	0x3d85a60e	0.06525813
78	0x3ef10ee3	0.4708167
79	0xbf0326f4	-0.5123131
80	0x3cec4d26	0.028845381
81	0x3e1d3e4f	0.153558
82	0x3d9acdbb	0.07558771
83	0x3de909f4	0.113788515
84	0xbd4d7dea	-0.05016891
85	0xbe854777	-0.26031086
86	0xbe2deb20	-0.16984224
87	0x3dd70609	0.10499198
88	0x3db14bb0	0.08657014
89	0x3d3d21ce	0.046174817
90	0x3e10d705	0.14144523
91	0xbb374859	-0.0027966707
92	0xbb9383eb	-0.00450181
93	0x3e14c8fc	0.14529794
94	0x3eb31cf7	0.34983036
95	0x3d5f2b81	0.054484848
96	0xbdf19395	-0.11795727
97	0xbde99a34	-0.11406365
98	0x3d921d00	0.071344376
99	0xbe03ce48	-0.12871659
100	0x3ece2800	0.40264893
101	0xbd0a25e0	-0.033727527
102	0x3d8f8f9a	0.07009812
103	0xbdec05ac	-0.11524519
104	0xbd807253	-0.062718056
105	0xbea0574f	-0.3131661
106	0xbea8bd22	-0.32956797
107	0xbe742257	-0.23841225
108	0x3d24aa3a	0.040201403
109	0x3df77c28	0.12084228
110	0x3cc2244c	0.023698948
111	0x3e774f0d	0.24151249
112	0xbd071859	-0.032982204
113	0x3e841579	0.25797632
114	0x3d8ca92b	0.06868204
115	0x3e9ad93a	0.30243856
116	0xbe415149	-0.18878664
117	0x3e194df1	0.14971139
118	0x3d51cced	0.051220823
119	0xbe0030bc	-0.1251859
120	0xbd853aa9	-0.06505329
121	0xbe0eebf6	-0.139572
122	0x3e4f5004	0.20245367
123	0x3dd5262d	0.10407672
124	0xbe9c94e1	-0.30582336
125	0xbd00411c	-0.031312093
126	0x3e025535	0.12727816
127	0x3e153b09	0.14573301
128	0x3ef738a5	0.48285404
129	0x3e3b9d58	0.1832174
130	0x3ec23052	0.3792749
131	0xbe709825	-0.23495539
132	0x3e668c95	0.22514565
133	0x3e37bfff	0.17944334
134	0x3c5b62f2	0.01339029
135	0xbe79ff09	-0.24413694
136	0x3edc9420	0.4308176
137	0xbf3d6cb2	-0.7399398
138	0xbe0088d4	-0.12552196
139	0x3ea4cfe6	0.32189864
140	0xbe14179e	-0.14462134
141	0xbf88fdae	-1.0702417
142	0xbcf365b3	-0.02971158
143	0xbe9185ec	-0.28422487
144	0x3d485a4f	0.04891425
145	0x3d34e11d	0.044159997
146	0x3e959363	0.2921401
147	0xbdcf0bc3	-0.10109665
148	0xbebdb670	-0.3705325
149	0x3dbbd457	0.0917136
150	0xbe8c3ff9	-0.27392557
151	0xbe67145d	-0.22566362
152	0xbe02343f	-0.12715243
153	0xbdfe402f	-0.12414586
154	0xbe685b5c	-0.22691101
155	0x3d1d1f73	0.03836007
156	0x3e24eeff	0.16106795
157	0xbedac4fc	-0.42728412
158	0xbe963bae	-0.29342407
159	0xbee76b79	-0.45199183
160	0x3f1bdf71	0.6088782
161	0x3f3d987c	0.740608
162	0xbe561b24	-0.20908791
163	0xbd130e96	-0.035902582
164	0xbd889158	-0.06668347
165	0xbe9074c5	-0.28214088
166	0xbe149706	-0.14510736
167	0xbdfd0123	-0.123537324
168	0xbe5a1c4c	-0.21299857
169	0xbdbca261	-0.09210659
170	0xbe9e4502	-0.30912024
171	0xbe9a9fb5	-0.30199972
172	0x3d8d3290	0.0689441
173	0xbd58e280	-0.052950382
174	0x3ec43bab	0.38326773
175	0x3ec2a716	0.380181
176	0x3f3d9fb6	0.74071825
177	0x3eb9459b	0.36185917
178	0xbd811bcc	-0.0630413
179	0xbd7114c0	-0.05885768
180	0xbdb1c604	-0.086803466
181	0xbede13b6	-0.43374413
182	0xbe7808e2	-0.24222139
183	0x3d89b4de	0.06723951
184	0x3e650ea6	0.22368869
185	0x3ed5e06b	0.4177278
186	0xbec49b9a	-0.38399965
187	0x3e9d0bb1	0.30672982
188	0xbd482dd2	-0.048871823
189	0xbe1b7413	-0.15180998
190	0x3dd62bcc	0.10457572
191	0xbe8b0d6d	-0.2715868
192	0x3d34e96e	0.04416793
193	0x3c193dda	0.0093531255
194	0xbdd661f1	-0.104678996
195	0x3efba440	0.4914875
196	0xbd2b748a	-0.041859187
197	0x3d277e1d	0.040891755
198	0xbde6ee23	-0.1127589
199	0x3e557318	0.20844686
200	0xbe2735dd	-0.16329141
201	0xbde16fb8	-0.11007637
202	0x3d48b0b3	0.04899664
203	0x3e882b01	0.2659531
204	0xbc2fbacd	-0.010725689
205	0xbe479343	-0.1948977
206	0xbe00f121	-0.12591983
207	0xbe88ff29	-0.26757172
208	0xbde73b09	-0.11290557
209	0x3e82ba5f	0.25532815
210	0x3e053432	0.13008192
211	0x3dac3106	0.08407788
212	0x3c505801	0.012716294
213	0x3d6d86bf	0.057989832
214	0xbe819075	-0.25305524
215	0x3e51ffca	0.20507732
216	0x3e0deac0	0.13859081
217	0x3ed94a22	0.4243937
218	0xbe14fefa	-0.14550391
219	0xbb84a7b7	-0.0040483135
220	0xbd7144fe	-0.058903687
221	0x3b917972	0.0044395262
222	0xbd253f65	-0.04034366
223	0xbe276dfa	-0.16350546
224	0x3e360138	0.17773902
225	0x3e24f362	0.16108468
226	0x3e2b29f4	0.16715223
227	0x3d9bf213	0.07614531
228	0x3d5a9268	0.05336228
229	0x3dd224de	0.10260938
230	0xbee3d90a	-0.44501525
231	0x3e1367d2	0.14395073
232	0x3d3208a6	0.04346528
233	0x3d361066	0.044449233
234	0x3df707b8	0.12062019
235	0x3dd3781b	0.10325643
236	0xbd65f5b5	-0.056142528
237	0x3d78415e	0.060609214
238	0xbe85e68f	-0.26152465
239	0xbdc22c85	-0.09481148
240	0xbe782211	-0.24231745
241	0x3e8b710f	0.27234694
242	0xbde0ba4e	-0.10973035
243	0xbbe5bda5	-0.007011133
244	0x3e855464	0.26040947
245	0xbe8784fa	-0.2646864
246	0x3e503a48	0.20334733
247	0x3e52a710	0.20571542
248	0xbe38e27d	-0.18055148
249	0x3d17ff1a	0.03710852
250	0xbe22febb	-0.15917484
251	0x3be6f8d7	0.007048707
252	0xbd881892	-0.066453114
253	0xbcecd364	-0.028909393
254	0xbe067494	-0.13130409
255	0x3e30fc92	0.17283848

mlp_extractor.value_net.2.bias f4 [64]
0	0x3d5b4e7d	0.05354165
1	0xbd616d50	-0.05503589
2	0xbe5552b1	-0.20832326
3	0xbcd4941b	-0.025949528
4	0x3b8de3c1	0.004330129
5	0xbcb16539	-0.021654712
6	0xbd03fc73	-0.032223176
7	0x3da40449	0.0800863
8	0x3d38bf1c	0.04510413
9	0xbd807b3d	-0.06273506
10	0xbc8402be	-0.016114589
11	0x3af8c8db	0.0018980758
12	0x3e559a1d	0.20859571
13	0xbd2161d8	-0.03939995
14	0x3e0b1fe5	0.13586386
15	0xbe43fab7	-0.19138609
16	0xbd58e284	-0.052950397
17	0xbe21a992	-0.15787342
18	0xbc9be1e5	-0.019028613
19	0xbd7efb6d	-0.062251497
20	0xbe3e5401	-0.18586732
21	0x3d4677ab	0.048453968
22	0xbcfc3548	-0.030787125
23	0x3e81ead8	0.25374484
24	0x3de0eae9	0.109823056
25	0xbcac9a67	-0.021069719
26	0x3e4d03cf	0.20020984
27	0x3ca5232a	0.02015837
28	0x3d17ba39	0.03704283
29	0x3db31f08	0.08746153
30	0xbb6c343b	-0.0036041874
31	0x3e486c25	0.19572504
32	0xbd9206c7	-0.07130199
33	0xbd0c7d5b	-0.034299236
34	0xbd963ece	-0.07336198
35	0x3d543df8	0.05181691
36	0x3c9585c8	0.018252268
37	0xbc9f4376	-0.019441348
38	0xbbe3f2f6	-0.0069564534
39	0x3e025435	0.12727435
40	0x3d5eb025	0.054367203
41	0xbd0866e7	-0.03330126
42	0x3dc28e7a	0.094998315
43	0x3cd33d39	0.02578603
44	0x3d17c0ab	0.037048977
45	0x3d49ef40	0.049300432
46	0xbe4ce380	-0.2000866
47	0x3ca65b6a	0.020307261
48	0x3d77311d	0.060349572
49	0xbe0ac012	-0.13549832
50	0xbbead8ae	-0.0071669435
51	0x3d8f0ee2	0.069852605
52	0xbdc8d08f	-0.098054044
53	0x3e87748f	0.26456115
54	0xbd8d4fee	-0.06900011
55	0x3e8a513d	0.27015105
56	0x3e256b91	0.16154315
57	0x3dd14552	0.102183
58	0xbd3f1a87	-0.046656158
59	0x3d0a3fb2	0.03375215
60	0xbe2637b7	-0.16232191
61	0xbd313649	-0.04326466
62	0x3e4e3622	0.20137838
63	0xbe713ac5	-0.23557575

action_net.weight f4 [5, 64]
0	0xbd040361	-0.032229785
1	0xbdd04276	-0.101689264
2	0xbdb11fdd	-0.086486556
3	0xbe35b185	-0.177435
4	0x3d55b31c	0.052172765
5	0xbaefafa6	-0.00182866
6	0x3d1ad9dc	0.037805423
7	0xbcda66e2	-0.026660386
8	0x3e150507	0.14552699
9	0xbe042c81	-0.12907602
10	0xbe808e33	-0.2510849
11	0xbceed03e	-0.029152032
12	0x3db365d8	0.087596595
13	0xbde34ae2	-0.11098267
14	0xbb0d395d	-0.0021549084
15	0xbdfc38ba	-0.12315507
16	0x3d5ac6e0	0.05341232
17	0xbdfc2c3e	-0.12313126
18	0xbe66f955	-0.2255605
19	0xbddaa486	-0.106759116
20	0xbeb967fe	-0.36212152
21	0xbdc867d8	-0.097854316
22	0xbcf4ba5b	-0.029874017
23	0xbe34b0fe	-0.17645642
24	0xbd69c50e	-0.05707269
25	0xbe8e5a63	-0.27803335
26	0xbe36bf41	-0.17846395
27	0xbd77b25a	-0.060472824
28	0x3daf0a07	0.085468344
29	0x3df7f8b6	0.12107985
30	0x3d91c63f	0.071178906
31	0xbdfc6f0b	-0.12325867
32	0x3d4a836b	0.049441736
33	0xbe101292	-0.14069584
34	0x3d9a896b	0.07545742
35	0x3dfc5f80	0.12322903
36	0xbd69084f	-0.05689269
37	0xbdd493cc	-0.103797525
38	0xbc6c67a9	-0.014429011
39	0x3de6c7aa	0.11268552
40	0xbcf10f87	-0.02942635
41	0xbe44ba11	-0.19211604
42	0x3ba0770b	0.0048970035
43	0xbdb89b2f	-0.09013974
44	0xbdadbc37	-0.08483165
45	0x3cfd165a	0.030894447
46	0x3e0172b5	0.12641414
47	0x3da94f09	0.08267028
48	0x3d6aad90	0.05729443
49	0x3cdd8d04	0.02704478
50	0x3c3faf27	0.011699474
51	0x3d57fc39	0.052730773
52	0xbc68dd64	-0.01421294
53	0x3df97afa	0.12181659
54	0xbe499669	-0.19686283
55	0x3d49e20b	0.049287837
56	0xbdd0a3cd	-0.101874925
57	0x3d5d3c2b	0.05401246
58	0xbd2a9c66	-0.04165306
59	0xbd90a85f	-0.07063364
60	0x3e24507a	0.16046324
61	0xbd86f4fe	-0.06589697
62	0x3d9d5003	0.07681277
63	0xbc393220	-0.011303455
64	0x3ed569bc	0.4168223
65	0xbf0927ff	-0.53576654
66	0x3f06d6cb	0.526715
67	0x3ea8932c	0.32924783
68	0xbf1611e1	-0.5862103
69	0x3ea57817	0.32318184
70	0x3e70f928	0.23532546
71	0x3e998eba	0.29991704
72	0xbe450b90	-0.19242692
73	0xbe8d7228	-0.27626157
74	0xbe6d288a	-0.23159996
75	0x3ecd5f0a	0.40111572
76	0x3f3805b5	0.7188371
77	0xbf3fd898	-0.7493987
78	0xbe86fd86	-0.26365298
79	0xbeda3943	-0.42621812
80	0xbeadd366	-0.33950347
81	0x3e95f88e	0.29291195
82	0xbf2dae4f	-0.678441
83	0xbf5eb8fc	-0.87001014
84	0xbf345035	-0.70434886
85	0x3e1cf6c3	0.15328507
86	0x3de724d8	0.11286324
87	0x3f27d96f	0.6556615
88	0x3e1cf4e8	0.153278
89	0xbd9ad720	-0.07560563
90	0x3e98b4ad	0.29825345
91	0x3e882af6	0.26595277
92	0xbe9dafff	-0.30798337
93	0xbe63d719	-0.22250022
94	0xbde23824	-0.11045864
95	0xbe6b30d4	-0.22967845
96	0xbeaacc0d	-0.33358803
97	0x3ee4a516	0.446572
98	0xbed9aed7	-0.42516205
99	0x3f90c36f	1.1309642
100	0x3ec33204	0.38124096
101	0xbf5b9647	-0.8577618
102	0xbede1ea0	-0.4338274
103	0x3eb98351	0.36233
104	0xbe9cc2c1	-0.30617335
105	0xbf17c97f	-0.59291834
106	0xbec436c0	-0.3832302
107	0xbee263e7	-0.44216844
108	0xbe632201	-0.2218094
109	0x3e340d45	0.17583187
110	0xbec8b792	-0.39202553
111	0xbf4432c6	-0.76639974
112	0x3f47229c	0.77787185
113	0xbe97a874	-0.29620707
114	0xbe2d0afb	-0.1689872
115	0xbeed288c	-0.46319997
116	0x3e96ae6e	0.29429954
117	0xbee4692d	-0.44611493
118	0xbf15b293	-0.5847561
119	0x3f42f42a	0.76153815
120	0x3ed32232	0.41237026
121	0x3f1b7c48	0.60736513
122	0xbf36c062	-0.713873
123	0x3e796a45	0.24356945
124	0xbf952afd	-1.1653744
125	0x3eba22fd	0.3635482
126	0xbd065fad	-0.032806087
127	0x3f2c439d	0.6729067
128	0xbef12baa	-0.47103626
129	0x3e9a0009	0.30078152
130	0xbebd4163	-0.3696395
131	0xbe89adc8	-0.26890397
132	0x3f5ce7f0	0.8629141
133	0xbf009715	-0.5023053
134	0xbd06f22e	-0.032945804
135	0x3f119eba	0.5688282
136	0x3f9a635d	1.2061573
137	0x3f4faa2b	0.8111903
138	0xbec53c3e	-0.38522524
139	0xbd9d9bc3	-0.07695725
140	0xbf6e55cd	-0.9309967
141	0x3f88031e	1.0625951
142	0x3fbb0af0	1.4612713
143	0x3f8e01f6	1.1094348
144	0x3f2ca526	0.67439497
145	0xbe4d906d	-0.20074625
146	0x3f938bd6	1.152705
147	0x3fc0d034	1.5063539
148	0x3cdf9769	0.027293878
149	0xbc7a0a7d	-0.01526129
150	0xbdd600f5	-0.10449401
151	0xbe431231	-0.19049908
152	0x3dc4e6d1	0.09614337
153	0x3f45bef5	0.772445
154	0xbf027b51	-0.50969416
155	0xbed3514a	-0.41272956
156	0x3e816818	0.2527473
157	0x3e93772b	0.28801855
158	0x3e01d15d	0.12677522
159	0x3eefb8d5	0.46820703
160	0x3ebd2f23	0.36950025
161	0xbf2ec0a2	-0.68262684
162	0x3f0385bb	0.5137593
163	0xbede81ea	-0.43458492
164	0xbecfff9b	-0.406247
165	0x3e30b0d2	0.17254952
166	0x3e83c569	0.2573655
167	0xbe86af55	-0.26305643
168	0x3ef0e29e	0.47047895
169	0x3e950f68	0.29113317
170	0x3eb4f8c0	0.3534603
171	0x3e42024b	0.18946187
172	0x3f1f7ffc	0.62304664
173	0xbde73334	-0.11289063
174	0x3ea16cd3	0.3152834
175	0x3f5c3029	0.86010987
176	0xbf9b47bb	-1.2131265
177	0x3dca3678	0.0987367
178	0x3e82479f	0.25445268
179	0x3eb4ce0d	0.35313454
180	0xbe801f37	-0.25023815
181	0x3f20e1f2	0.62844765
182	0x3f979525	1.184239
183	0x3f6c7dd3	0.9237949
184	0xbe91c0b0	-0.2846732
185	0xbf022572	-0.50838387
186	0x3e3e9f15	0.18615372
187	0xbe019e61	-0.12658073
188	0x3f42afa0	0.7604923
189	0xbee4252d	-0.44559613
190	0x3d460b24	0.04835047
191	0xbe9d261c	-0.30693138
192	0x3f357d78	0.70894575
193	0x3f8148f3	1.0100387
194	0xbf4646da	-0.7745186
195	0xbd8b30b5	-0.067963995
196	0x3eb551fb	0.3541411
197	0x3bf51601	0.0074794297
198	0xbf4b0497	-0.7930388
199	0xbf1afbb6	-0.6054033
200	0x3e39ebcb	0.18156354
201	0x3f188bea	0.5958849
202	0xbf17f074	-0.5935128
203	0x3e77245d	0.24134965
204	0xbee375e0	-0.4442587
205	0xbe2caf95	-0.16863854
206	0xbf38ff33	-0.72264403
207	0x3f132151	0.5747271
208	0xbf174c97	-0.5910124
209	0x3d7caef2	0.06169028
210	0xbeeafe3d	-0.45897093
211	0xbf980f75	-1.1879717
212	0x3f1b8643	0.6075174
213	0x3f4621d0	0.77395344
214	0xbf3f4a1b	-0.7472245
215	0x3ea2e485	0.31814972
216	0xbfae22e1	-1.3604394
217	0xbf34814a	-0.7050978
218	0x3dbf21bb	0.093326055
219	0x3e84fc81	0.25973895
220	0x3f261773	0.6487953
221	0x3e9c6f59	0.30553702
222	0x3f3f639b	0.7476136
223	0x3db35fd2	0.08758511
224	0x3e325c9c	0.1741814
225	0x3ccedc01	0.02525139
226	0x3ef07e81	0.46971515
227	0xbf98cc22	-1.1937296
228	0xbdb2032a	-0.0869201
229	0x3b2e7197	0.0026617998
230	0xbec5bd5d	-0.38621035
231	0xbf0077a0	-0.50182533
232	0x3c166dcf	0.009181454
233	0x3e5f2023	0.21789603
234	0xbc9b0f84	-0.018928297
235	0xbe5c5f5f	-0.21520756
236	0xbf322107	-0.69581646
237	0xbeea2cf7	-0.4573743
238	0x3f34f052	0.706792
239	0x3f3716e7	0.7151932
240	0xbdb2bf68	-0.08727914
241	0xbddaa159	-0.10675306
242	0xbec9875f	-0.39361092
243	0x3f2d3a82	0.676674
244	0xbf28eb4c	-0.65984035
245	0xbd540ffd	-0.05177306
246	0x3dacf352	0.08444847
247	0xbf72d5de	-0.94857585
248	0x3ece2bcf	0.40267798
249	0xbec9e63a	-0.3943346
250	0xbbebf3af	-0.00720068
251	0x3f10d9c3	0.5658228
252	0x3f7c0d61	0.98457915
253	0xbcfd0f5d	-0.030891115
254	0x3f91fc75	1.1405169
255	0x3d23b49c	0.039967164

action_net.bias f4 [5]
0	0xbc98e30b	-0.01866295
1	0x3e9cee83	0.3065072
2	0xbeccb528	-0.3998196
3	0x3ceb1438	0.028696164
4	0xbdb91c63	-0.090386175

value_net.weight f4 [1, 64]
0	0xba8a051e	-0.001053009
1	0xbb786658	-0.0037902799
2	0xbe8ca187	-0.27466986
3	0x3c047d31	0.008086489
4	0x3de6ed41	0.11275721
5	0xbd4ce41a	-0.050022222
6	0xbdf297a6	-0.11845331
7	0x3b0aab71	0.0021159316
8	0xbd9cbb68	-0.076529324
9	0x3bea948a	0.0071588205
10	0x3b678345	0.0035326045
11	0x3a68a151	0.00088741357
12	0xbe1268ee	-0.1429784
13	0xbe321698	-0.17391431
14	0x3e2cd5f6	0.16878495
15	0xbe3bb9cf	-0.18332599
16	0xbe8c3ab9	-0.27388552
17	0xbe9eb8da	-0.31000406
18	0x3a8600fe	0.0010223684
19	0xbd92a532	-0.07160415
20	0xbe146619	-0.14492072
21	0xb99c910c	-0.00029862707
22	0xbba4698a	-0.005017464
23	0x3e8ebf2f	0.27880237
24	0x3e157fa6	0.14599475
25	0xbd03f988	-0.032220393
26	0x3e91b500	0.28458405
27	0xbe02819d	-0.12744756
28	0x3e1dc199	0.15405883
29	0xbe305ad8	-0.17222154
30	0xbc3f83da	-0.011689151
31	0x3e0b5dae	0.13609955
32	0xbece6cb5	-0.40317312
33	0xbb07bbb6	-0.002071125
34	0x3bf4f190	0.0074750856
35	0x3df6c2fa	0.120489076
36	0xbe4603f5	-0.19337447
37	0xb9debb28	-0.00042482582
38	0xbee1a6c5	-0.44072548
39	0x3e8ed7f9	0.2789915
40	0x3e20e559	0.15712489
41	0xbd04e17f	-0.032441612
42	0x3e6f9924	0.23398262
43	0xbe52864c	-0.20559043
44	0xbcae05ab	-0.021242937
45	0x3c2cfc74	0.010558236
46	0xbebd67d5	-0.3699328
47	0x3c9d85b5	0.019228796
48	0x3e81d48b	0.2535747
49	0x3dd21ada	0.10259028
50	0xba310fa1	-0.0006754343
51	0xbe6b3583	-0.22969632
52	0xbb3a3ed4	-0.0028418796
53	0xbe70b627	-0.23506986
54	0x3e8189f4	0.25300562
55	0x3dc8f300	0.098119736
56	0x3e9f58e0	0.31122494
57	0x3de41597	0.111369304
58	0xbcf7491d	-0.03018623
59	0xbe901fef	-0.28149363
60	0xbde7db1b	-0.11321088
61	0xbe547a5f	-0.20749806
62	0x3ecdfd84	0.4023248
63	0xbea84725	-0.3286678
